circuit_C/checkpoint_circuit_c_1.pth.tar (torch, 48354 bytes, 33 tensors)

layer1.weight f4 [32, 4]
00000000: f423 da3e 3eb0 fabd 6b6e 9bbe 9272 a83e
00000010: 3c61 afbe e765 97be 6484 85be 2802 6dbe
00000020: 1727 6e3e 1f17 763e 9903 0fbd de48 e03d
00000030: dc84 3cbe cdae 2b3d aac8 463e 5f53 723e
00000040: 20e5 8b3e 9deb 07be d7df 14be 4f18 0dbe
00000050: 9d34 abbd b20f 8b3e 26ba fdbd 98b1 b53e
00000060: b1f7 b8bd de27 723c c7ac f3bb bd20 a6be
00000070: 93ee 5d3e 2417 54be 8cdb f43d ff10 a1be
00000080: 5780 db3d 09cb 92be 0d06 a8be ad65 8dbe
00000090: 995a 83be afc3 78be 1083 c7be f6be e63c
000000a0: 653c 0b3d ad95 de3e 9fea bdbc 5ce2 19be
000000b0: f75f 58be 640d 453c abf0 d0bd 9376 b73d
000000c0: 3fc2 83bd 944b fa3d ebab 7f3e f2f9 9bbd
000000d0: 2df4 c83e ae07 5cbe 721b 4ebe 0201 bbbe
000000e0: 6268 8c3e f0a8 bdbe 3ebf 653d 5415 053e
000000f0: b59b 733e 45be 32bd d714 bfbe 6e4d 0a3d
00000100: d669 cb3e 7614 61be 5265 e53d 39f4 87be
00000110: d26c 8bbe 9216 5f3e c956 c9be b174 8c3e
00000120: 1fff b1bd dca8 e5bc ef77 85bc f889 7dbe
00000130: 1ce5 7abe fbbe ec3e 06d3 d83e 2171 89be
00000140: 9923 53be dd64 8c3e a288 96be 5b3b b3be
00000150: e98c 00be 6713 643e e59c bebe 2fd1 a33e
00000160: ffbd c43e e361 abbe c895 27bd e9c8 073e
00000170: aacb 9d3d a86b 3b3e c0a2 c43d 4c2c 1b3e
00000180: f506 c7be 3b80 04be 9ec8 b4be a782 20be
00000190: 7b0d 2ebe 28c4 a1be 9aa6 783e 3bb4 9b3e
000001a0: d4de 9fbe dbc8 33be 20e7 373d 52b6 a33e
000001b0: 778e 8e3d cbec 65be cc43 3dbe c69c cebe
000001c0: 5cf5 0abe 37f2 443e 4ec2 3cbe 0b28 8c3e
000001d0: 9c28 3abe bc8c 7e3e 0d06 b63e d65e 9cbb
000001e0: b05e a43d 16ef 783d a820 663e e35a c3bc
000001f0: 8c49 98be 7791 d63e ab0b 1e3d c7a2 783e
0.42605555 -0.12240647 -0.3035768 0.3289991 -0.3425387 -0.29569933 -0.2607757 -0.23145354
0.23257099 0.24032257 -0.03491554 0.10951398 -0.18410057 0.04191475 0.19412485 0.23664616
0.27323246 -0.13273473 -0.14538513 -0.13778804 -0.083596446 0.27160412 -0.123890206 0.35487056
-0.090316184 0.014780013 -0.007436368 -0.32446852 0.2167304 -0.20711952 0.11955938 -0.3145828
0.10717838 -0.2867053 -0.32817116 -0.27616635 -0.25655058 -0.24293397 -0.3896718 0.02816723
0.033993144 0.4347357 -0.023183165 -0.15027755 -0.21130358 0.012027118 -0.10202154 0.08958163
-0.06433534 0.12221447 0.24967925 -0.07616033 0.3924879 -0.21487305 -0.20127657 -0.36524206
0.27423388 -0.37042952 0.056090586 0.12996417 0.23789866 -0.043638486 -0.37320587 0.03376525
0.39729184 -0.21980461 0.11200966 -0.26553515 -0.2723146 0.21785954 -0.39324024 0.27432778
-0.086912386 -0.02803462 -0.01629254 -0.24759662 -0.24501461 0.46239457 0.42348498 -0.26844123
-0.20619048 0.27420703 -0.29401118 -0.35006222 -0.12553753 0.22273026 -0.37229076 0.31995532
0.38426206 -0.3347312 -0.040914327 0.13260235 0.077048615 0.18302786 0.096013546 0.15153617
-0.38872495 -0.12939541 -0.3530931 -0.1567484 -0.1699733 -0.31594968 0.24282303 0.30410942
-0.31224692 -0.17557089 0.044898152 0.31975037 0.06960767 -0.2245361 -0.18482894 -0.40353984
-0.1357016 0.19233023 -0.18433496 0.273743 -0.18179554 0.24858373 0.3555149 -0.0047720475
0.08025873 0.060774885 0.22473395 -0.02384705 -0.29743612 0.41907856 0.038585346 0.24280845

layer1.bias f4 [32]
00000000: 1832 363d 0000 0000 25bb a13d 4e92 393d
00000010: c81f 2d3e b27e 6f3d ea46 5abc 99c9 743b
00000020: 9038 86bc d7c7 7bbc caa3 f93c 2368 f73c
00000030: 7e19 c73c 677a d23d 65a2 423e 1f2a f53c
00000040: b988 d33d bcbd ac3d 0000 0000 15c5 493d
00000050: 30da 173e c7f0 383c 03ae 25bb fde0 37bd
00000060: 0000 0000 ca6d 6f3d a960 5e3d 78b7 e4bb
00000070: b4de 9dbb 4dd9 84bc 5e8b dabc 385e 10bb
0.044481367 0.0 0.07897023 0.045305543 0.16906655 0.058470435 -0.013322571 0.0037351607
-0.016384393 -0.01536747 0.030473609 0.030201023 0.024304148 0.10277253 0.19007261 0.029927311
0.10328812 0.084346265 0.0 0.049260218 0.14829326 0.011287875 -0.002528072 -0.0448923
0.0 0.058454312 0.0542914 -0.006979879 -0.004817808 -0.016216898 -0.026677784 -0.0022028815

layer2.weight f4 [32, 32]
00000000: 48c0 61bb 0a8b e2bd a4b9 0bbe 23be 103e
00000010: ff00 1b3e 1a88 1fbe 693a 87be e059 b03e
00000020: 0b4c 5d3e 269f 9fbd 6b19 74be 5c62 043d
00000030: 7fe6 5bbc b448 a33d 9760 81be e128 5d3e
00000040: 613b 083e a861 0e3e 2bc2 833e 7ec8 513a
00000050: 595e 46be 39c2 d63d af75 d8bc 880f 973e
00000060: 8593 64bd 5fe7 25bd c4e0 b5bd 7e8f 263c
00000070: f1c5 adbd 9c21 aebd 1c38 df3d ec93 84be
00000080: c8e8 a9bc 2b8f 80be e79a ff3d 8ac8 72be
00000090: d0d0 bdbe f596 98be f4f5 7fbc ec65 eebd
000000a0: aac4 98be a0c4 8cbd ccc1 cb3e 0dee 0cbe
000000b0: 6ac3 823e 56d4 a83c a7aa 523d 8fc9 693e
000000c0: fb1e 09be 14c7 6ebd cc94 aebd a6bb 923e
000000d0: b7c5 e5be ef27 30bd 6934 37bc a591 ec3d
000000e0: 096e 763d 996d 2f3e 1615 babd 8a23 623e
000000f0: faec 553e 6fa7 a63e c4f6 91bb c972 4c3e
00000100: 4350 a33e b08a 343e a7b8 833e 5d35 803e
00000110: 666b e93d d2d9 24bd cd85 27be 068d 52bd
00000120: 0e34 783e aade aa3d 7856 c1bd 7578 85bd
00000130: 757e 2a3e 4056 2bbe 1272 a03e e2a1 90be
00000140: e41c 9a3e 7af9 083e 5fb7 7b3e f473 65be
00000150: 78a3 913e bdc2 933e 9abe 1cbe e1f4 37be
00000160: f51c 82be 311a 2fbe edae 833e 388b 48be
00000170: 3bec 233e d731 35be 6a73 403e 64e7 92b9
00000180: b3b0 083e 8d62 24be 7f5f 353e 6063 77be
00000190: 4688 afbe 4dab 5b3d aa34 923d 51d9 7e3e
000001a0: 038c 27be 2c55 5bbe 6f6c a7bd 42a4 253e
000001b0: 91a7 2a3d cfd9 873d 9aee 83be a289 093d
000001c0: 249f 7ebe 7f07 803c 572d 1dbe e7bb 5bbe
000001d0: 3a1b b23e c059 533e bbf4 b1bd 60da 223e
000001e0: 8dbc f03d 1367 88be c226 6c3e f26f 81bd
000001f0: b3d8 073d 6cce 173e 59de 07be d517 883e
00000200: 7787 25bd 0098 803e 282e 4ebe ead4 12be
00000210: 9e16 a2be 1839 81be b4b7 bcbd 09ef 893e
00000220: f125 8ebe 0a9f cebd fbfc b13d f8f8 9e3c
00000230: 8649 6dbe 3d55 95bd 7622 59be 874a 1bbe
00000240: 6c8e 2b3e a19a c2bd c063 45bd a038 673e
00000250: 0961 9ebe 3ef8 033d 8f55 62bc 24d7 9f3e
00000260: c992 6f3e b50a 7c3e f08b 96be f24c 9c3e
00000270: c92e 3ebe d46f 4f3e 7460 83bc 1190 4fbc
00000280: 1674 5a3e 63c6 ea3d d461 06be d6b9 c83d
00000290: 1ce5 bf3e 80b5 c93d 0395 33be b003 10bd
000002a0: 8135 6cbe 83ef 44be 1876 1b3d c28f 53be
000002b0: 45bb 5ebd b301 7ebc 79c9 71be a946 653e
000002c0: 4a64 4a3d af9e 85be 5f8e 343d ecee bb3c
000002d0: cf22 ca3d 5b88 ff3c 161e 33be de26 693e
000002e0: bb6d 76be b6ed 12be f83f 9a3c 0575 71be
000002f0: 19bc 6c3e 48f5 9fbe cf6b 7b3e b32a 823d
00000300: 744a 35be df87 763e 00b1 76bd f867 25be
00000310: d94d 96be 7185 f63c 09aa 24be 1e79 7f3d
00000320: 0f12 2b3e 68a6 853e f620 12be f583 b1be
00000330: 939b b3bd b78c 3b3e 58c7 863d a5da 543e
00000340: 70ff 693e 1980 38bb a90a 5a3e cc19 17be
00000350: 7a34 92be f08f fe3d 869c 403e 9784 21be
00000360: 2536 ed3c 6d38 4fbe ee54 13be b7b6 f2bd
00000370: 3036 293e 918c edbd 3252 893e 959d febd
00000380: cea9 0dbd 049a 083e 0430 b4bd 658a 71be
00000390: 9a21 f23e 6539 ddbd 62d7 8e3d d91d 963d
000003a0: 5c74 8ebe 6476 323d 9f2c 9abd d1bd e7bc
000003b0: b252 48be b426 11bd 3192 a03e bef7 d53e
000003c0: 2e3c aa3e 2d88 ab3e 6397 f0bd b9f0 2a3b
000003d0: 1f1c 213e db95 123e 2f24 af3d 5877 65be
000003e0: bd46 5cbe 3b08 bb3e 0cb7 b53e 417c 593e
000003f0: 0d48 d03d 49b6 62be c0b8 43be 476e febd
-0.0034446884 -0.11061676 -0.13645035 0.14135031 0.15137099 -0.15579262 -0.2641175 0.3444357
0.2161104 -0.07794027 -0.23837821 0.032320365 -0.013421654 0.079728514 -0.25269005 0.21597625
0.13303901 0.1390444 0.25734076 0.0008002593 -0.19371928 0.10486264 -0.026423303 0.29504037
-0.055804748 -0.040503856 -0.08880761 0.010166047 -0.0848502 -0.08502504 0.10899374 -0.25894105
-0.020740882 -0.25109228 0.12480717 -0.23709312 -0.37073374 -0.2980267 -0.015622605 -0.11640534
-0.29837543 -0.06873441 0.39796293 -0.13762684 0.25539714 0.020609062 0.051432278 0.22830795
-0.13390724 -0.058295324 -0.085244745 0.2865879 -0.44877407 -0.043006834 -0.011181929 0.11551217
0.06016353 0.17131652 -0.09086053 0.2208387 0.2089118 0.32549617 -0.0044544656 0.19965662
0.31897172 0.1763103 0.25726816 0.25040713 0.11397438 -0.040246792 -0.16359635 -0.05140402
0.24238607 0.08343251 -0.09440321 -0.06517116 0.16649802 -0.1673212 0.3133703 -0.28248507
0.30100167 0.13376418 0.2458167 -0.22407514 0.2844503 0.2885951 -0.15307084 -0.17964508
-0.25412717 -0.17099835 0.25719395 -0.19584358 0.16008084 -0.17694794 0.18794027 -0.0002801969
0.13348655 -0.16053219 0.1771221 -0.24159002 -0.34283656 0.053630162 0.07138951 0.24887587
-0.16362004 -0.21419209 -0.08174979 0.1617594 0.04166371 0.066333406 -0.25767976 0.033578523
-0.24865395 0.015628574 -0.15349327 -0.21458398 0.34786397 0.20639706 -0.08689257 0.15903616
0.11754713 -0.2664114 0.2306166 -0.0632018 0.033165645 0.14824837 -0.13268413 0.26580682
-0.040412392 0.25115967 -0.20134795 -0.14339033 -0.3165788 -0.25238872 -0.09214726 0.26940182
-0.27763322 -0.10088928 0.0869083 0.019405827 -0.23172578 -0.072916485 -0.21204552 -0.15165149
0.16753548 -0.095021494 -0.048190832 0.22580194 -0.30933407 0.032219164 -0.013814344 0.31218827
0.23395838 0.2461346 -0.2940364 0.30527455 -0.18572535 0.20257503 -0.016037203 -0.012668625
0.21333346 0.114636205 -0.13123256 0.098010704 0.37479484 0.098490715 -0.17537312 -0.035159767
-0.23067285 -0.19231991 0.03795442 -0.20660308 -0.054377813 -0.015503335 -0.23612012 0.22390236
0.04941205 -0.26097628 0.04408109 0.022941075 0.098699205 0.031192949 -0.17491946 0.22768733
-0.24065296 -0.14348492 0.01882933 -0.23579796 0.23118629 -0.31241822 0.24552844 0.063558005
-0.17704183 0.24075268 -0.060227394 -0.16152942 -0.29356268 0.030092927 -0.16080488 0.062371366
0.16706108 0.2610352 -0.14270386 -0.34670988 -0.08769908 0.18315397 0.065809906 0.20786531
0.22851348 -0.0028152524 0.21293129 -0.14755934 -0.2855566 0.12429798 0.18809709 -0.15773235
0.028956482 -0.20236368 -0.14387867 -0.11851256 0.16524577 -0.115990765 0.26820523 -0.124324
-0.034585766 0.13340002 -0.08798221 -0.2358795 0.4729126 -0.10801963 0.06974675 0.07329912
-0.2782315 0.043569937 -0.07528042 -0.028288754 -0.19562796 -0.0354373 0.31361535 0.41790575
0.33249038 0.3350233 -0.11747625 0.0026083423 0.15733384 0.14314978 0.08551823 -0.22408807
-0.2151136 0.36529717 0.35491216 0.21238805 0.101699926 -0.22139849 -0.19113445 -0.124233775

layer2.bias f4 [32]
00000000: c314 e3b9 e39b 2abc 3ef5 fc3c 47e3 b9bc
00000010: 6699 5a3c 6e36 bdbc 7b43 90bc 655d 583e
00000020: 4e27 1b3d 641f 6f3b dac1 b63d 6925 253d
00000030: 9465 453c 9942 143d dcdb aebc 8c95 0d3c
00000040: c2a3 c93c b155 253d efd8 6fbc 59b5 c23c
00000050: 771a 473e 4d6b fc3c 3816 4a3c 5da8 de3d
00000060: ef19 2dbb 89e3 d93d 0000 0000 c18b 2f3c
00000070: b7fa 003c 7cc9 16ba 9f29 0e3d 440f fb3c
-0.00043312283 -0.010413143 0.03087866 -0.022691382 0.013342237 -0.023097243 -0.017610302 0.21129377
0.03787928 0.0036487216 0.08923693 0.04031888 0.012048144 0.036196325 -0.021345071 0.008641612
0.024614219 0.040364925 -0.014639123 0.023768114 0.1944369 0.030812884 0.012334399 0.108719565
-0.0026413163 0.10639102 0.0 0.010714472 0.007872275 -0.00057520694 0.03470766 0.030646928

layer3.weight f4 [4, 32]
00000000: e678 233e ae34 92be 5ab7 b1be 80b4 ac3e
00000010: a411 b63e f783 a1be c4d0 b2bd 64ae ba3e
00000020: 7621 893e c6a1 43be 5225 893e 05b2 2bbe
00000030: 8c52 5d3d 7822 933e 7cce 80bd e85d ad3c
00000040: f753 7ebe 472f bb3e 7ae9 89be 72d7 ad3d
00000050: e58a ad3e 3bec e9be 7daa 163c 76b5 51be
00000060: 6c05 c6be 902f 18be fe19 c03e 6511 dabe
00000070: a80b d93e b741 23bd 9b28 b8bd 3eec b2be
00000080: 23c3 94bc a9ea bfbe ca7b 233e aed3 a8be
00000090: 1503 b53d f001 bf3c 05a4 b1be c5b4 293f
000000a0: 8fdf a7be f4f2 3d3e 2ff6 b93e 09e3 323e
000000b0: 99c5 963e 5f69 25be 613e 29bd 753b 3c3d
000000c0: 78f7 883e 076b f83d 92da 5cbe 97ac 973e
000000d0: 6d93 463f 8cc1 16bf d140 73be 2d80 5c3e
000000e0: b4f7 54bd 79ce 393f 0a96 74be d367 0dbf
000000f0: ca42 18be 3082 d2bd 239b 863d a811 21be
00000100: 1f50 803e f03a 803d 1da6 3a3e 8113 df3e
00000110: ec76 a03d ef54 ddbd 597c bf3e 6a35 d13e
00000120: ff32 abbd a6e4 8a3e 59ad 193e febe f3be
00000130: a160 5ebe c7c8 7a3e 5e44 a0be c0fb 63be
00000140: 9921 a5be 0d47 7cbe edd3 a73e 3675 cdbe
00000150: 5003 89be c687 02be 2695 71be 8a33 83be
00000160: 0dca 653b d651 c23e 0c08 b83e 9f1f a53d
00000170: 56c3 73be ea9a c4be 89ca 943d d1c9 833e
00000180: f602 183e f155 8d3e 0694 79be 0e35 84bd
00000190: f7aa 813e ab82 9f3c 0dca af3d cc43 0ebf
000001a0: 2844 e2be 0d99 94bd 447f 983e a09a f2bd
000001b0: a0ec 7e3e 13db 553e 997f 9ebe 25f9 28be
000001c0: 1d38 1bbe 19d1 9ebe 352d 783e 854d 3abe
000001d0: fdf4 2d3e f055 2cbe 99ba ae3d 793b 653a
000001e0: fbce b73e 92ed 2f3e 2036 743d 4dd8 823e
000001f0: 2202 853d ecd6 a13d 2949 70be 94c6 ecbe
0.15964088 -0.28555816 -0.347102 0.3373146 0.35560334 -0.31545994 -0.08731225 0.36461174
0.2678334 -0.1910468 0.26786286 -0.16767128 0.0540338 0.28737235 -0.06289384 0.021162942
-0.24836718 0.36559507 -0.2693594 0.084883586 0.3389503 -0.45688042 0.009195921 -0.20479378
-0.38676012 -0.14861894 0.3751983 -0.42591396 0.42391706 -0.039857592 -0.0899212 -0.34945863
-0.018159455 -0.3748372 0.1596519 -0.32974 0.088384785 0.023316354 -0.3469545 0.6629146
-0.3278775 0.1854971 0.36320636 0.1746942 0.2944763 -0.16153477 -0.041319255 0.04595514
0.26751304 0.12129789 -0.21567753 0.29623863 0.77568704 -0.5888908 -0.23755194 0.2153327
-0.05199404 0.7258068 -0.2388536 -0.5523655 -0.14869228 -0.102787375 0.06572559 -0.15729392
0.25061128 0.062612414 0.1822743 0.43569568 0.078351825 -0.108072154 0.37399557 0.40861064
-0.08359336 0.2712757 0.15007533 -0.47606653 -0.21716549 0.24490653 -0.3130216 -0.22264004
-0.32252195 -0.24636479 0.32778874 -0.40128487 -0.2676034 -0.12747106 -0.23592052 -0.2562526
0.0035063059 0.3795306 0.3594364 0.08062672 -0.23804983 -0.3839944 0.07265193 0.2573991
0.1484488 0.2760463 -0.24372873 -0.06455432 0.25325748 0.019471487 0.0858346 -0.555722
-0.44192624 -0.072557546 0.29784596 -0.11845899 0.24894953 0.20884351 -0.30956724 -0.16501291
-0.15158124 -0.31018904 0.24235995 -0.18193634 0.16987987 -0.16829658 0.085316844 0.0008744519
0.359001 0.1718047 0.05962193 0.2555565 0.064945474 0.07902321 -0.23465408 -0.46245253

layer3.bias f4 [4]
00000000: b061 c23b 772c 8b3d 34ab 75bb 5ab2 57bc
0.0059320554 0.0679559 -0.0037486078 -0.013165081

layer1.weight f4 [32, 8]
00000000: 337c 793d b4b4 8e3e 47e0 9abe 164d 27be
00000010: 7337 95be 8632 d6be 9e3f c2be dba2 83be
00000020: e7e5 e43c 61ee bcbe a005 4cbe 5750 58be
00000030: ca97 bb3e 5a4c 5ebd e14c 723e dd6b 263e
00000040: ca35 b5be de7e bdbe a91e f5bc ff2c 84be
00000050: 4a05 523e 2f25 7ebd 450f 8f3e 8253 993e
00000060: 81cb b83e 67d0 04be c423 263e f55d e43d
00000070: 0e7d 813e 462c 9abe dcf8 c73e 0eb2 07be
00000080: 4939 713e 7bfc c93e 5770 5f3e 22e9 4a3e
00000090: 756c 7d3e c986 023e 207b 68be 57b0 b3be
000000a0: 6f83 f03d 9b4b 89bd 2330 803d 51e5 bcbe
000000b0: 0726 32bc 99ab ee3c bffb 81bd 0d76 c2ba
000000c0: fefe dbbd fcaf a03e 3726 da3d 40d6 49be
000000d0: b661 eabd f0e9 71bd ed13 7a3e 15e8 843d
000000e0: 7c22 583d 2733 a3be d797 d03d d5f8 42be
000000f0: bca1 a43e 98cb 4a3d abc8 ac3e f69c c8be
00000100: 140a e7bd a35b 3bbe 9bd7 283e edcd e33e
00000110: cbe2 6cbe 640b 3b3e 6857 513d 6b36 233e
00000120: 0532 0e3e 1d70 01be 2269 983e bcc0 1f3d
00000130: 449f 193d 47fa e13c 8461 5fbe 7388 9a3e
00000140: 659e e23d a6be f0ba 992d 943e d8d0 c13d
00000150: 7d75 a53e f2f7 853e 4e75 a33e bb02 c13e
00000160: 1c78 74be eac0 5abe eec8 aa3e b372 32bc
00000170: b7f9 81be d297 74be a52d cbbe 56e7 673d
00000180: f49e bf3d 9f0e 023d c325 553c 11b1 bf3e
00000190: 9358 f0bd ead0 82bd 2e9e 1dbe 32a0 973e
000001a0: e5b3 bc3e 2f93 27be 959f a8be 45bb b33e
000001b0: 2dcb a63d ec92 423e 6c34 0a3e 31a8 babd
000001c0: 36da 02bd be17 4a3e 7978 313e f827 9e3e
000001d0: 03c5 ae3e 3f28 0dbe 06b6 d7bd 9f54 4b3e
000001e0: 228b 8fbd e0d6 9dbe bd2d 513e 8330 a1be
000001f0: 84b6 443c bcb6 a7bd bfdd ac3e 9aec ba3e
00000200: 859a b13e b6c7 ac3e c615 823c a65d d23e
00000210: 5a93 a1bd 178f 02bd 64f2 4cbe cd87 32bd
00000220: 3f73 fb3d 4d0f 103e 7f8c 6dbc abbf b2be
00000230: 1111 773d 6578 123e f898 663e a6b5 953e
00000240: 2146 6e3c 009f acbe cf86 d2bc 9638 953d
00000250: 3e04 73be 55f4 003f 7161 7dbd 1749 d1be
00000260: 0b2a fdbc 00fc df3e aa7d c23e 2191 dd3d
00000270: 8cd7 3f3e e91f f53d 8c91 7abe 6094 163d
00000280: 4748 d23e c996 943e aa6c 3b3e 3060 353e
00000290: 999f b4be f8ae 9f3e ad8d ab3e 6856 f3bd
000002a0: ca38 05be 2222 113e d831 fdbe fa55 57be
000002b0: 0411 433e 7aa6 e13e 0619 77be 7bd9 80bd
000002c0: 4bfa 6dbc 03c6 90bc 8d6d 6b3d 4866 d43e
000002d0: cf4a 093d 8e4d 023e f89a ac3e 9f61 cdbd
000002e0: 3fa1 733e 8421 9bbe 9419 2c3b 050f c93e
000002f0: 3b2a a7be aa58 a5bc 1a84 b5be 2e70 b53d
00000300: b8e7 cbbe 6256 733e 12f0 0a3e b187 44bb
00000310: 6d0e 9b3c 2dea 5abe 24dc 3cbe a786 fb3d
00000320: 4037 033d 6035 a63e 8eba 9b3c bf7c 01be
00000330: bed5 25be 604d 74be 1253 dcbc 8f30 1e3d
00000340: d5f8 9c3e 6d65 e8bb 59d2 dc3c 2f11 c03e
00000350: 7211 683e 3037 223e 640c b9bc bf46 783d
00000360: 3f89 1abc 7b2c 47be 6983 d43e 738a a33e
00000370: ef51 efbd 2659 0fbe a386 c23e 5dc2 8d3e
00000380: 87c5 d13d 93f3 82be 281d c4be 96ce 81be
00000390: 61d7 8ebe 8f3d ae3e 3a26 ab3d a66e 32be
000003a0: 8915 a23e 8041 5dbd 207c aa3e f76d 6d3e
000003b0: 1d50 9f3e afa5 dcbd 5163 2abd c0a6 82be
000003c0: 54f1 673e 455d a1be 34a5 35be 42c4 5a3d
000003d0: 02d3 123e cd1b ed3e 4164 1c3e 6bfd 123e
000003e0: 6c09 95bc 81fa 003b 93db a83e 2b46 42be
000003f0: 5ce5 13be d045 93be 5b68 47be 9ff0 a03e
0.06090946 0.2787224 -0.30249235 -0.16338 -0.29143867 -0.4183542 -0.3793916 -0.25710186
0.027941657 -0.3690062 -0.19924021 -0.21124397 0.36639243 -0.054272033 0.2366214 0.16252084
-0.353926 -0.37010854 -0.029921846 -0.2581558 0.2050983 -0.06204718 0.27941337 0.29946524
0.3609276 -0.12970124 0.16224581 0.111507334 0.25290722 -0.30111903 0.39057052 -0.13251516
0.23557009 0.3945044 0.21820198 0.19815496 0.24748404 0.12746729 -0.22703218 -0.35095474
0.11743819 -0.06703874 0.06259181 -0.36893705 -0.010873324 0.029134559 -0.06346845 -0.0014836207
-0.10741995 0.31384265 0.1065182 -0.19710636 -0.11444418 -0.05906099 0.24421664 0.06489579
0.052767262 -0.31874964 0.10185211 -0.19040234 0.32154644 0.04951057 0.33746848 -0.39182252
-0.11281219 -0.18296675 0.16488497 0.44493046 -0.2313339 0.18266064 0.051108748 0.15938728
0.13886268 -0.12640424 0.2976771 0.039002165 0.037505403 0.027585162 -0.21814543 0.30182227
0.110653676 -0.0018367365 0.28941038 0.09463662 0.323162 0.2616573 0.31925434 0.37697396
-0.23873943 -0.21362653 0.33356422 -0.010891604 -0.2538583 -0.2388604 -0.39683262 0.056617104
0.0935649 0.031752225 0.013009491 0.37439778 -0.11735644 -0.063875034 -0.15392372 0.29614407
0.36856 -0.1636474 -0.3293425 0.35103813 0.081442215 0.19001359 0.1349656 -0.09114111
-0.031946383 0.1973562 0.17331113 0.3088987 0.34134683 -0.13784884 -0.10532765 0.19856499
-0.07008959 -0.30828 0.20427604 -0.31482324 0.012006406 -0.08189151 0.3376293 0.36508638
0.34688202 0.33746117 0.015879523 0.41087073 -0.07889433 -0.031874742 -0.2001434 -0.04358654
0.12277841 0.14068337 -0.014498829 -0.34911856 0.06031901 0.1430374 0.2251929 0.2924015
0.014543087 -0.33715057 -0.025699047 0.072861835 -0.23732087 0.5037282 -0.061860505 -0.40876076
-0.030903837 0.43746948 0.379865 0.10818697 0.18734568 0.11968977 -0.24469584 0.036762595
0.41070768 0.2902129 0.18303171 0.17712474 -0.35278013 0.31188178 0.33506528 -0.11881715
-0.13009945 0.14173177 -0.4945209 -0.21028891 0.1904946 0.44072324 -0.2413064 -0.06291481
-0.0145250065 -0.017672544 0.057477523 0.41484284 0.03351861 0.12724897 0.33711982 -0.10028385
0.23791979 -0.30299008 0.0026260363 0.39269271 -0.32649407 -0.02018388 -0.35452348 0.08859287
-0.39825225 0.23763421 0.13568142 -0.0029988105 0.018927777 -0.21378393 -0.18443352 0.12281542
0.032035112 0.32462597 0.019009855 -0.12645243 -0.16194817 -0.23857641 -0.02689508 0.038620528
0.30658594 -0.007092169 0.02695577 0.3751311 0.22662905 0.15841365 -0.022588916 0.060614344
-0.009432136 -0.19450562 0.41506508 0.31941566 -0.116855495 -0.13998851 0.37993345 0.2768735
0.102427535 -0.25576457 -0.38303494 -0.25352925 -0.27898696 0.3403134 0.083569005 -0.17425022
0.31657055 -0.054017544 0.33297825 0.2318648 0.3111581 -0.10773789 -0.04159862 -0.25517845
0.22650653 -0.31516472 -0.17738801 0.053409822 0.14338306 0.46310273 0.15272619 0.14354484
-0.01819297 0.0019680562 0.32980022 -0.1897208 -0.14442962 -0.287642 -0.19473402 0.3143358

layer1.bias f4 [32]
00000000: 4d8f 083e 86ee 45bc 0000 0000 36ff 9b3d
00000010: 0168 cd3d 0913 1fbd cc19 7c3d 77ad ce3d
00000020: 9e7e e63d 9fdb c23d f22f 9ebc 0fe8 3f3d
00000030: e806 cc3d 24ae 853d 29ec 2e3d ea2e d13a
00000040: c7d6 e03d dfca f4bb 51f5 c73d 988f af3d
00000050: 0fdf 903d c3be 983d d354 fc3d d88a 5d3d
00000060: bcc9 29bd c67b a13c ea4f e73c be2b b03d
00000070: b901 8fbb e2af 913d 6139 f73d b52c 83b7
0.13335915 -0.012080794 0.0 0.07617037 0.10029603 -0.038836513 0.06154804 0.100916795
0.11254619 0.09514546 -0.019309971 0.046852168 0.09962255 0.06527355 0.04270569 0.0015959416
0.109784655 -0.007470473 0.09763587 0.0857231 0.07073795 0.0745826 0.123208664 0.05408749
-0.041452155 0.01971234 0.028236348 0.08602093 -0.004364219 0.07113625 0.12071491 -1.5637235e-05

layer2.weight f4 [32, 32]
00000000: aa9d a1bd caeb 053e d804 8ebe f058 233e
00000010: c7e0 16be c30b 973d 682f 37be 0fde a93d
00000020: 305b 17be 1659 b5be adf6 223d df97 f13d
00000030: 3c44 343e 1bd6 48bd 566d a4be afcb 283e
00000040: 21a4 7b3d 6074 6bbd 22da 2f3c d8e3 433d
00000050: d531 7c3e 8ee8 d0bd a57b 433e 7c6a 503e
00000060: be58 b83d 2be9 113e 9499 b0be 92f2 343e
00000070: 01ae 4cbe 2334 bbbd 1f1a 23be 1e41 173e
00000080: e59f 8e3e 030f 3f3e 17cf 953e db79 34bd
00000090: 85d8 6ebe 7771 19be 67e5 79be 18e5 75bd
000000a0: c383 87be 1996 75be 9059 5f3e d8df 89be
000000b0: 51b3 6abe e1cc 79be 5a5c 123d 59ed 39be
000000c0: 29b1 5ebe c5dd 96be 26b6 573e fc0f 8b3d
000000d0: 6799 af3d cc67 93be 52e7 0dbe 8a77 31be
000000e0: 9651 92be 8598 163e e13b 963d ac69 103e
000000f0: a586 553e e7b9 77be 5cf0 e33c b676 bb3c
00000100: 8c22 bbbd 9d02 27be 2578 833d 0cf6 d23e
00000110: 8136 8a3d 0d17 933d 7d09 d03c 7bc1 6ebd
00000120: 7e54 193e 38d2 db3d d6f4 febd 5401 77bd
00000130: 0180 df3e fabe c63e ec2d 86bd c4c8 193e
00000140: 2550 5e3d f652 1abe cfd4 c83d 2d56 fa3d
00000150: 868f b03d fd70 f0bd e2f3 c93e 9ec5 1abe
00000160: 5380 b5bd 8646 c83e 78eb 9f3e aa1c 563e
00000170: 8518 fe3d 73d1 603e 247d d73e a090 b3bd
00000180: 9550 933d 3582 8ebe 18c1 673e 1549 1a3d
00000190: 2465 98bd 5add 023e 9ab5 3bbe 34ca 96bd
000001a0: d28d 8cbd 8861 303b 43cc 23bd 13d3 7cbe
000001b0: ced5 11be 0dea 06be 1242 96bd 4a93 92be
000001c0: 5503 f83d 5f76 f73d 226c 9bbe 6307 763e
000001d0: 8459 52be 7e42 1bbd 96ca 8c3e 3338 de3c
000001e0: 076f ac3d f91d a5bd 62c0 a0bd be82 a4bd
000001f0: f76f 863d 9dbd 4c3e 9e3b 9cbe 0898 0b3e
00000200: e26b d13b e484 903e 68ef 0ebe e35d 533e
00000210: 1d2a 343e c7a0 19be b918 60be ded3 44be
00000220: 5a6f 86be 5f27 abbe c74e 973b 94bc 7cbd
00000230: 0b08 77be 74b5 efbd 5e51 523d a5c5 a7be
00000240: b689 9a3d 7fdb 04be 6ab4 34be ba6c cb3d
00000250: d299 c5ba fc4e 9cbe 1a85 40be c696 ee3d
00000260: b5d8 c83a 86bd 553e 65bc 0c3e ab7c 81be
00000270: ea60 b4bc 48dc d13d 32cb 79be f93b 03bd
00000280: b684 8ebe 19a0 163e 891b 22be 2f04 7dbd
00000290: d1a8 e8bd 7837 a7be f467 8cbe 4c12 da3e
000002a0: 1693 1bbb f2c5 f33d fdec fc3d b758 513e
000002b0: 960b 363e b47e c9bd e76e 4ebe a72d 8abe
000002c0: 1596 abbd bdce 8fbe 714d f4bd 2d0b 363e
000002d0: 8511 ccbd 84bc 963e bcec 06bd a58b 60bd
000002e0: 1fbb 19bd 0cd1 0cbe 0223 aa3e db0d 2e3e
000002f0: 7a5a 043e 8833 b53e e39b c23e bafe 9d3e
00000300: 08c2 f8bc 28c5 68bd 0e78 14be 0ec9 ce3d
00000310: c883 37bc 183e ce3d 0471 c43d ce84 76bd
00000320: d4b0 1d3e 5ca9 d93d 6c1a d4bd 1ae4 083d
00000330: 06e5 973e 8ff4 7a3e 9724 bfbd ad15 d23d
00000340: 9367 f8bc fea3 a13e 477a 353d bb3f 1bbd
00000350: fe73 a63e 9ace 283e c136 ce3e 7a56 c73e
00000360: a497 273e 2c32 e73c e858 813e 68bd 5e3e
00000370: ccd4 cd3d 5746 183e aba7 9d3e 3cfc 183e
00000380: 7c83 813e f6cc 823d f5c2 8abe e8c4 5e3e
00000390: 593c 5a3e f085 b6bd c493 cd3c 74c1 8a3e
000003a0: 5c2f 4cbc 2c4f d83d fead 963e e765 9c3d
000003b0: cf43 8c3e 912d 663c b236 113e f4fb b03d
000003c0: f182 b73e d031 c03d 44e3 92bc 6e4b 353e
000003d0: 6c6e 38bd 8c27 a6bd f95f 903e 0c23 513e
000003e0: 543f 5bbe 443a 433e 67bd 4dbd 7032 d5bc
000003f0: a1a1 8cbe 509b ab3d 4ad5 803e f295 10be
-0.078914 0.13078228 -0.2773807 0.15951896 -0.14734183 0.0737529 -0.17889178 0.082943074
-0.14780879 -0.3541953 0.03978603 0.11796545 0.17604154 -0.049032312 -0.32114667 0.16483949
0.061435822 -0.05748403 0.010733159 0.04782471 0.24628384 -0.10200606 0.19090135 0.2035312
0.09001301 0.14249103 -0.3449217 0.17670658 -0.19988252 -0.09140804 -0.15927933 0.14770934
0.27856365 0.1865807 0.2925956 -0.044061523 -0.23324783 -0.1498469 -0.24403916 -0.060032934
-0.26467714 -0.23983039 0.21811509 -0.26928592 -0.22919966 -0.24394561 0.035732605 -0.18156947
-0.21747269 -0.29466072 0.21065578 0.06790158 0.08574181 -0.28790128 -0.13857773 -0.17330757
-0.2857787 0.14706619 0.0733564 0.1410281 0.20852144 -0.2419201 0.027824573 0.022883754
-0.09137449 -0.1630959 0.064194 0.41203344 0.06748677 0.07182131 0.02539515 -0.058289986
0.14973637 0.107334554 -0.124490425 -0.060304 0.43652347 0.3881758 -0.06551728 0.15017992
0.05427565 -0.1507071 0.09806215 0.12223468 0.08621125 -0.11740301 0.3944388 -0.15114447
-0.088623665 0.39116305 0.31234336 0.20909372 0.124070205 0.21954899 0.42087662 -0.087678194
0.07193104 -0.27833715 0.22632253 0.037667353 -0.07441166 0.12779751 -0.18330994 -0.07362786
-0.068629876 0.0026913602 -0.03998972 -0.24689893 -0.14241716 -0.13175221 -0.07336821 -0.28627998
0.121100105 0.12083124 -0.30355936 0.24026255 -0.2054196 -0.03790521 0.2749831 0.027126407
0.08419614 -0.080623575 -0.07849194 -0.080327496 0.06564324 0.19994207 -0.30514234 0.13632214
0.0063910345 0.28226388 -0.13958514 0.20641284 0.1759419 -0.15002738 -0.21884431 -0.19221446
-0.2625683 -0.33428475 0.0046175453 -0.06170328 -0.24124162 -0.11704531 0.05134713 -0.32767978
0.075457975 -0.12974356 -0.17646948 0.09932847 -0.0015075749 -0.3052901 -0.18800774 0.116498515
0.0015323373 0.20873079 0.13743742 -0.25290427 -0.022018868 0.102470934 -0.24393919 -0.032039616
-0.27835625 0.1470951 -0.15830816 -0.061771568 -0.11360324 -0.32659507 -0.2742306 0.42592084
-0.0023738793 0.119029894 0.123498894 0.20443998 0.17777857 -0.0983862 -0.20159493 -0.26987955
-0.08378235 -0.28087416 -0.11928833 0.177777 -0.09964279 0.294407 -0.03294061 -0.054820675
-0.03753197 -0.1375162 0.33229834 0.16997473 0.12925139 0.35390878 0.38009557 0.30858403
-0.030365959 -0.056828648 -0.14498922 0.10096942 -0.011200853 0.10070437 0.095918685 -0.060185246
0.15399486 0.10628006 -0.10356602 0.03342066 0.2966692 0.24507354 -0.09333151 0.102580406
-0.030322826 0.3157043 0.044306066 -0.037902575 0.3251037 0.16485062 0.4027615 0.38933164
0.1636644 0.028222166 0.25263143 0.2175194 0.100503534 0.14870583 0.30791983 0.1493997
0.25295627 0.063867494 -0.27101865 0.21754801 0.21312083 -0.08912265 0.025094874 0.27100718
-0.012462463 0.10561976 0.2942962 0.07636624 0.27395484 0.01404895 0.14181021 0.08641806
0.35842088 0.09384501 -0.017930634 0.17704555 -0.04502718 -0.08113012 0.2819822 0.20423526
-0.21410877 0.19065195 -0.050229456 -0.026025027 -0.27467063 0.08379233 0.25162727 -0.141197

layer2.bias f4 [32]
00000000: 22f8 53bd 0000 0000 feaa 013e 75c0 53bc
00000010: d4d0 5bbd 8439 593d 6ea1 023e d455 a13d
00000020: 2992 0abd 41eb 10bd f6d4 a53d 2a4f ebbc
00000030: 429d b03d a9ba d4bc e440 9dbc 5bd8 023e
00000040: bf8b 4fbd 1f73 01bd 5656 0c3e 0000 0000
00000050: 61a6 fabc 4a40 db3d 0c8d b43d 4561 c2bc
00000060: 284d 9d3d 0000 0000 0000 0000 2c5f 2bbc
00000070: 8003 8ebc 44bb 0b3e 7b00 a93d b533 bc3d
-0.05175031 0.0 0.12662885 -0.012924303 -0.05366595 0.053033367 0.12756893 0.078776985
-0.033830795 -0.035380606 0.0809726 -0.028724272 0.086237445 -0.025967913 -0.019195981 0.12777846
-0.05067038 -0.03160393 0.1370481 0.0 -0.030596914 0.107056215 0.08815965 -0.023728022
0.07680732 0.0 0.0 -0.010459702 -0.017335653 0.13645655 0.08252045 0.0918955

layer3.weight f4 [1, 32]
00000000: 6e10 09be 7679 aa3e 6dfe 2f3e 8f92 f9bd
00000010: b7e1 88be a270 fa3e ed9d 613e 2d09 a53e
00000020: 13c7 17bc 6399 b9be 159b 8b3e 9ab4 88be
00000030: 8c2c e63e d9fa b8bd 2cd0 86be 0e96 503e
00000040: 9ad3 96bd 71ed 75be 442e 443e 5a84 a53e
00000050: 606f c8be e28c 3d3e 7ec9 923e 23d1 98be
00000060: 1489 9f3e af77 8bbd 0d34 323c b413 d1be
00000070: f2a5 76be 9eb6 df3e b02c 8b3e bd34 8e3e
-0.13385174 0.33295792 0.171869 -0.12186157 -0.26734707 0.48914057 0.220329 0.32233563
-0.009263772 -0.36249837 0.27266756 -0.26700288 0.44955862 -0.090322204 -0.26330698 0.20369741
-0.073645785 -0.24016358 0.19158274 0.3232754 -0.39147472 0.18510774 0.2866935 -0.2984706
0.3115927 -0.06809937 0.010876668 -0.40835345 -0.2408674 0.43694013 0.2718253 0.2777461

exp_avg f4 [32, 4]
00000000: 6c6d ec36 8bd0 3037 bd23 f936 cb59 0937
00000010: 0000 0000 0000 0000 0000 0000 0000 0000
00000020: 3728 f535 8e1c dd37 28c6 8837 774d 4d36
00000030: a6ad c8b5 da60 47b6 c999 ee37 da0e 8ab6
00000040: 1470 eb37 5e0d 0338 1fc9 8138 af65 ca37
00000050: 35ea b6b5 76c7 9eb7 7af8 fb34 83f2 37b6
00000060: 0400 0000 0400 0000 0400 0000 0400 0080
00000070: 270c f3b6 8f1b a835 9b75 3eb5 48e2 4eb6
00000080: 0400 0000 0400 0000 0000 0000 0400 0000
00000090: 0400 0000 0400 0000 0400 0000 0400 0000
000000a0: d55a bcb7 23d2 2cb8 05aa 8fb8 8578 cdb7
000000b0: 5aa2 de35 1984 c537 8739 d136 3c4d b336
000000c0: 44b6 26b7 922a c5b7 10aa 88b7 87f8 96b7
000000d0: 5f8f 15b6 3ead 0eb8 9238 4436 45dc 8036
000000e0: 41ae f337 7b1c 8038 6f24 6938 7fbc 0b38
000000f0: 5e8c b036 4b94 d6b6 03ea fb36 e452 3737
00000100: 431b 4437 c660 1338 92a1 2738 7c4f 6337
00000110: f976 c4b3 6da9 c037 4f9c 3138 673c 8137
00000120: 0000 0000 0000 0000 0000 0000 0000 0000
00000130: 611b 21b7 f63c 31b8 a7ce 02b8 edf7 80b7
00000140: 17c4 ce36 c014 c637 2271 0b37 359a e736
00000150: e896 32b6 2bff eb37 9ceb 0637 d691 8cb5
00000160: 2330 6fb6 f095 c435 8b06 3cb6 a99b d8b5
00000170: eaee afb6 f44d 82b7 ffe1 33b6 145a 2db7
00000180: 0000 0000 0000 0000 0000 0000 0000 0000
00000190: eacf 4236 3431 2737 d328 d736 aa5b aeb6
000001a0: b9f2 63b6 1f60 8137 0d18 6437 4830 94b6
000001b0: 0400 0000 0400 0000 0400 0000 0400 0000
000001c0: 20fb 1437 b6e2 a237 ab71 5537 97d1 da36
000001d0: 99b8 92b7 b6f0 88b7 2746 17b8 b6f3 beb7
000001e0: 5cdf 99b7 be96 cfb7 4268 8bb7 11b4 a6b7
000001f0: 960b 38b6 14eb a936 779b b3b6 ccb9 00b7
7.0460865e-06 1.0538973e-05 7.4249388e-06 8.186743e-06 0.0 0.0 0.0 0.0
1.8265627e-06 2.635855e-05 1.6304737e-05 3.059247e-06 -1.49517e-06 -2.9709686e-06 2.8443423e-05 -4.1144494e-06
2.8066373e-05 3.1245283e-05 6.188661e-05 2.4127627e-05 -1.362822e-06 -1.8927949e-05 4.6933184e-07 -2.7410285e-06
6e-45 6e-45 6e-45 -6e-45 -7.243379e-06 1.2524996e-06 -7.0951654e-07 -3.0828105e-06
6e-45 6e-45 0.0 6e-45 6e-45 6e-45 6e-45 6e-45
-2.2453643e-05 -4.12037e-05 -6.85044e-05 -2.4494026e-05 1.658754e-06 2.3545743e-05 6.2353824e-06 5.343607e-06
-9.936808e-06 -2.3504053e-05 -1.6291655e-05 -1.7997123e-05 -2.2286183e-06 -3.4016783e-05 2.9239204e-06 3.84034e-06
2.9049e-05 6.1088205e-05 5.558546e-05 3.3315733e-05 5.2615496e-06 -6.3949606e-06 7.5076255e-06 1.09269495e-05
1.1688858e-05 3.513766e-05 3.9966377e-05 1.3548761e-05 -9.148602e-08 2.2967079e-05 4.2345662e-05 1.5406125e-05
0.0 0.0 0.0 0.0 -9.6027225e-06 -4.2256863e-05 -3.1186875e-05 -1.5374239e-05
6.1621063e-06 2.3613102e-05 8.311386e-06 6.9022885e-06 -2.6611906e-06 2.8133005e-05 8.0418795e-06 -1.0473257e-06
-3.5641795e-06 1.4646776e-06 -2.8017992e-06 -1.6138557e-06 -5.2432197e-06 -1.5533507e-05 -2.6804626e-06 -1.03325765e-05
0.0 0.0 0.0 0.0 2.9029275e-06 9.965432e-06 6.412252e-06 -5.196275e-06
-3.396692e-06 1.5422758e-05 1.3595459e-05 -4.4163644e-06 6e-45 6e-45 6e-45 6e-45
8.879957e-06 1.9417475e-05 1.2722255e-05 6.5213057e-06 -1.7490516e-05 -1.6324553e-05 -3.606654e-05 -2.2763252e-05
-1.8343031e-05 -2.4746518e-05 -1.661864e-05 -1.9872592e-05 -2.742488e-06 5.063959e-06 -5.352714e-06 -7.672654e-06

exp_avg_sq f4 [32, 4]
00000000: f6e5 a032 c6e7 b832 4e06 8632 814d ad32
00000010: 0000 0000 0000 0000 0000 0000 0000 0000
00000020: 64cd 1a32 b56c 1d32 89bf 0c32 27e2 aa32
00000030: 0e5c 8a31 35c3 9432 e6da 8632 ae02 ae32
00000040: c17a dd32 d544 2d33 052c da32 cc2c 9f32
00000050: 6731 9c31 9227 9b32 9121 6432 5ddc 8132
00000060: bff9 8127 8c7b 612b e83c 542b 84fd 0e23
00000070: 7473 f530 3970 0231 25c0 c431 47e2 2330
00000080: c7fb ad2a 62c8 ed28 0000 0000 9a56 9122
00000090: 3702 1524 a6a1 e824 c2f7 0923 f34c 0829
000000a0: 10b8 0032 9f1d 8732 1a23 3132 3ed3 df31
000000b0: 3835 e130 44bc 7332 7649 2432 c8d4 c632
000000c0: 83a1 3631 d115 2f32 897a 8e32 0581 c031
000000d0: e762 ee31 ecd2 1331 34f6 6531 94b6 f830
000000e0: ee6f 6232 0cad a232 d059 8832 ba28 6b32
000000f0: 4017 a731 2bd0 bf31 b234 a130 3329 e431
00000100: 776a 2c32 5c21 3d32 f48c 9732 116a ed31
00000110: e92d 0232 3c15 1533 0d63 2132 172c 4b33
00000120: 0000 0000 0000 0000 0000 0000 0000 0000
00000130: f807 1132 8894 dc32 cb93 aa32 3593 9e32
00000140: 5ab8 1d30 1ef4 1631 138c 2431 2069 a02f
00000150: 1e8a 2e31 6d69 4032 f31c 4c31 6c69 1032
00000160: 47fd 0431 9058 9530 2fe8 7a30 c7ec 1f31
00000170: ba18 6532 dfb5 9a32 982f bf32 c4c5 d232
00000180: 0000 0000 0000 0000 0000 0000 0000 0000
00000190: 2e98 1931 a6fb af31 d7b2 1732 dcc0 1332
000001a0: 2f81 b930 0db3 e831 99eb e631 76b5 6332
000001b0: f134 ce29 091e 0528 8da3 3f26 cea8 2222
000001c0: fee3 2133 6055 9633 f164 4133 cfe0 f133
000001d0: bcea f432 4f5c 8833 8126 8433 952b 8433
000001e0: c642 3932 20c7 d032 2ca2 8032 621b 0a33
000001f0: de47 f130 e8ce b231 e9e7 e431 3667 8c31
1.8731026e-08 2.1525818e-08 1.560252e-08 2.0175095e-08 0.0 0.0 0.0 0.0
9.01068e-09 9.16332e-09 8.192623e-09 1.9893447e-08 4.026794e-09 1.7318238e-08 1.5699197e-08 2.0257485e-08
2.5783608e-08 4.0342304e-08 2.5398558e-08 1.8530407e-08 4.545814e-09 1.806237e-08 1.3278979e-08 1.5117786e-08
3.6075468e-15 8.0107514e-13 7.5402054e-13 7.7515194e-18 1.785891e-09 1.898128e-09 5.726195e-09 5.9620614e-10
3.090568e-13 2.6399188e-14 0.0 3.939402e-18 3.23111e-17 1.00887805e-16 7.47925e-18 3.026481e-14
7.492432e-09 1.5729539e-08 1.0310737e-08 6.5141696e-09 1.638603e-09 1.4187268e-08 9.5627595e-09 2.3146995e-08
2.6576294e-09 1.0191301e-08 1.6586698e-08 5.6026033e-09 6.9379555e-09 2.151121e-09 3.3463836e-09 1.8096267e-09
1.3180381e-08 1.8937975e-08 1.5873326e-08 1.36880605e-08 4.862983e-09 5.5824976e-09 1.1729269e-09 6.640357e-09
1.0035925e-08 1.1008833e-08 1.7642812e-08 6.909666e-09 7.577435e-09 3.471108e-08 9.393955e-09 4.730472e-08
0.0 0.0 0.0 0.0 8.441923e-09 2.5678915e-08 1.9857813e-08 1.8460563e-08
5.7378247e-10 2.1966637e-09 2.3944764e-09 2.9178526e-10 2.5398843e-09 1.1199842e-08 2.9702363e-09 8.405873e-09
1.93525e-09 1.0866348e-09 9.1279423e-10 2.3272138e-09 1.33351765e-08 1.8010665e-08 2.225697e-08 2.4537151e-08
0.0 0.0 0.0 0.0 2.2350934e-09 5.1217794e-09 8.83002e-09 8.600377e-09
1.3497238e-09 6.7724444e-09 6.7206654e-09 1.32543985e-08 9.1574216e-14 7.389496e-15 6.648809e-16 2.2044458e-18
3.769309e-08 7.000449e-08 4.502812e-08 1.12633295e-07 2.8512083e-08 6.349784e-08 6.153733e-08 6.1546565e-08
1.07836e-08 2.4304939e-08 1.4974908e-08 3.2155533e-08 1.7555484e-09 5.2040043e-09 6.6620385e-09 4.08627e-09

exp_avg f4 [32]
00000000: 72d9 2535 0000 0000 af5f 1438 4e82 9537
00000010: 1811 58b7 272b c8b7 0400 0000 9369 f5b5
00000020: 0400 0000 0400 0000 68b2 1bb8 e13c 3338
00000030: 86c3 5137 8890 67b8 f54c 0b37 3821 13b8
00000040: 5dd4 db37 1075 9837 0000 0000 1fbd 30b8
00000050: dfb5 03b6 17f7 6c38 1de8 fab6 4f9c 9537
00000060: 0000 0000 9cfc 2737 2fa0 d636 0400 0000
00000070: 337c b337 dcb8 1638 0d0b bb36 ff89 3638
6.1783715e-07 0.0 3.5375062e-05 1.7822862e-05 -1.2878583e-05 -2.3861952e-05 6e-45 -1.8284649e-06
6e-45 6e-45 -3.7121034e-05 4.2733624e-05 1.2502895e-05 -5.5209297e-05 8.302964e-06 -3.507847e-05
2.6205724e-05 1.8174323e-05 0.0 -4.2137803e-05 -1.9626384e-06 5.6496905e-05 -7.477602e-06 1.7834971e-05
0.0 1.0012791e-05 6.396345e-06 6e-45 2.1396298e-05 3.593495e-05 5.5743208e-06 4.35207e-05

exp_avg_sq f4 [32]
00000000: 0539 e833 0000 0000 2bbe 4c33 9e1c 6633
00000010: a842 3634 97b8 3e33 7649 f22b da8d 5432
00000020: d28c 072c 5d52 0d29 b084 ef32 fda0 4e33
00000030: d1d7 0633 b6cb 8132 1089 8f33 0308 8c32
00000040: 7655 6333 6f2b a733 0000 0000 46e2 8633
00000050: 852d c131 ef89 a132 a3cd b031 ca33 b033
00000060: 0000 0000 b8a4 c832 748b d132 dcff 192b
00000070: facd 4634 7f44 4934 b8d3 7b33 ddb0 8032
1.0813714e-07 0.0 4.7670408e-08 5.3577075e-08 1.697432e-07 4.4405706e-08 1.7215524e-12 1.2372277e-08
1.9262825e-12 3.1379728e-14 2.7883601e-08 4.810953e-08 3.139559e-08 1.5110214e-08 6.683888e-08 1.6301788e-08
5.2930282e-08 7.784444e-08 0.0 6.28102e-08 5.6222142e-09 1.8805592e-08 5.1456523e-09 8.205059e-08
0.0 2.335797e-08 2.4394218e-08 5.4711595e-13 1.8515121e-07 1.8744502e-07 5.863305e-08 1.498159e-08

exp_avg f4 [32, 32]
00000000: 6858 9b35 0000 0000 e252 4f35 c455 6c33
00000010: 42c9 2835 9b75 b233 0400 0080 55a0 cd34
00000020: 0400 0000 0400 0000 f76e c1b3 0400 0000
00000030: 7c41 9633 a0a7 0f35 881a a235 5c2e 2b34
00000040: 63e8 8a35 0400 0080 0000 0000 df3c 96b4
00000050: 5148 21b3 fe28 5cb0 7a81 9535 0be6 d834
00000060: 0000 0000 7aa9 8734 41ef e2b1 0400 0000
00000070: 4e92 25af fe27 e9b3 901c db34 0b05 13b1
00000080: 1bc8 6ab6 0000 0000 dff8 08b7 6bf7 bcb6
00000090: 7dff 8936 79f0 f4b6 0400 0000 55ff 4235
000000a0: 0000 0000 0000 0000 9f8f bfb6 e19b 2035
000000b0: 71cb 9fb6 47e7 0c36 b449 1c36 79b4 7a35
000000c0: 3207 0836 5bfb 7436 0000 0000 33c5 17b7
000000d0: 294d db36 5b31 f135 d13f 34b5 2f8d 14b7
000000e0: 0000 0000 d5f3 d035 70eb 7734 0000 0000
000000f0: 0d55 aeb5 51a3 17b7 360e c9b6 bb1a 16b7
00000100: 448e e9b5 0000 0000 2305 1437 cbee ee36
00000110: c27d b7b5 5d5e 0f37 0000 0000 ba83 cab5
00000120: 0400 0000 0400 0000 3f97 4437 64bb aeb3
00000130: 1b26 0a37 ae1f 20b6 e4a4 3fb6 c8d7 27b5
00000140: 2102 02b6 4cff 8935 0000 0000 89b5 a637
00000150: b294 6236 29c3 9735 2346 75b6 e3fc ca36
00000160: 0000 0000 5213 9a34 9f97 0335 0400 0000
00000170: ad86 0636 0789 5137 c6a3 a036 b193 4237
00000180: d566 60b6 0000 0000 a42e 2c37 a46a cf36
00000190: cbe5 9f36 8e3e 2837 0400 0000 48fe 6329
000001a0: 0000 0000 0400 0080 5ee4 8137 59b6 8e35
000001b0: 0c93 0b37 7ca3 8535 578d cd34 225c e734
000001c0: 6333 7435 0f5c 1637 0000 0000 31d7 c737
000001d0: a2d7 8737 1413 7d36 7ad5 9eb5 57d3 2336
000001e0: 0000 0000 f051 7535 8df8 7e35 0400 0000
000001f0: 088f 7336 5b72 3837 0c95 ea35 7fbc 6a37
00000200: 8863 b2b3 0000 0000 fb40 e2b5 e542 27b6
00000210: aedb 1db5 dcf8 beb4 0400 0000 30ab fcb4
00000220: 0400 0080 0400 0000 510c e8b5 678c 1b31
00000230: 0e89 56b6 876e 10b4 c2cd 01b6 7ee3 96af
00000240: 60db 08b6 2742 d233 0000 0000 904a d4b6
00000250: 8ed0 afb4 639b 9232 9675 e6b3 4f11 8cb5
00000260: 0000 0000 8d49 00b6 1656 bcb4 0400 0080
00000270: 96b0 1e34 473a 88b6 0bc7 11b6 75a7 d1b5
00000280: 79d5 0db6 0000 0000 5f70 30b6 9c63 acb5
00000290: 7c71 86b5 eb4b 97b5 0400 0000 f2e3 6cb5
000002a0: 0400 0080 0400 0000 1eb0 78b5 20f9 7db3
000002b0: c34f b8b5 c5b5 28b5 46f8 33b6 5594 bab3
000002c0: 6f71 1db6 942d 35b4 0000 0000 ef10 1fb6
000002d0: 51d8 40b4 9e83 9c32 b76a 35b6 64f1 eab5
000002e0: 0000 0000 f5de 7db5 194b feb2 0400 0080
000002f0: 61d9 90b4 8c1c e8b5 90d4 e6b5 050c e4b5
00000300: a6d3 85b5 0000 0000 ee15 5eb5 3a41 abb3
00000310: 9dc9 53b5 1a40 14b4 0000 0000 60be cab4
00000320: 0400 0000 0000 0000 3620 bab3 0400 0000
00000330: 6def 20b4 6794 2fb5 72be a3b5 5101 71b4
00000340: e6e4 90b5 1aab 7db0 0000 0000 c0fe 5bb1
00000350: 2959 aeaf 5d49 6db1 d51b 6db5 8f82 a6b4
00000360: 0000 0000 d756 4db4 0400 0000 0400 0000
00000370: 6f4f d6b0 b309 1631 ca3b beb4 0400 0000
00000380: f638 d934 0000 0000 d26f e736 9beb ef35
00000390: f0dd 10b7 aac6 1837 0000 0000 3dcb e5b5
000003a0: 0000 0000 0000 0000 c996 0637 4f73 41b5
000003b0: dedf b235 c559 99b6 04ff 4db7 bd09 0cb6
000003c0: 8665 1fb7 b33e 0cb6 0000 0000 11b3 bf36
000003d0: 08ae 6bb6 09c5 41b6 cd74 0235 a281 1b37
000003e0: 0000 0000 af19 0fb7 4659 39b6 0000 0000
000003f0: d844 1136 9a0d cb36 566c 5f36 1f38 5437
1.157413e-06 0.0 7.723412e-07 5.5026035e-08 6.2877746e-07 8.310163e-08 -6e-45 3.8300882e-07
6e-45 6e-45 -9.007447e-08 6e-45 6.996831e-08 5.351558e-07 1.2077662e-06 1.5942481e-07
1.0349435e-06 -6e-45 0.0 -2.7983967e-07 -3.7551505e-08 -8.0093787e-10 1.1139048e-06 4.0400514e-07
0.0 2.526902e-07 -6.6046657e-09 6e-45 -1.505864e-10 -1.08571825e-07 4.081271e-07 -2.1394182e-09
-3.4985194e-06 0.0 -8.1641765e-06 -5.63164e-06 4.112661e-06 -7.2997614e-06 6e-45 7.264219e-07
0.0 0.0 -5.7089633e-06 5.983148e-07 -4.762253e-06 2.0996247e-06 2.3288712e-06 9.339488e-07
2.0269767e-06 3.6505141e-06 0.0 -9.046215e-06 6.535691e-06 1.7970264e-06 -6.714809e-07 -8.854359e-06
0.0 1.5568172e-06 2.3089319e-07 0.0 -1.2988763e-06 -9.038326e-06 -5.991921e-06 -8.94692e-06
-1.7401258e-06 0.0 8.822683e-06 7.120752e-06 -1.3671163e-06 8.545435e-06 0.0 -1.508851e-06
6e-45 6e-45 1.1717725e-05 -8.1365926e-08 8.234313e-06 -2.3860298e-06 -2.8557197e-06 -6.252635e-07
-1.9372749e-06 1.0281597e-06 0.0 1.9873276e-05 3.3763176e-06 1.1307176e-06 -3.654867e-06 6.049509e-06
0.0 2.8698793e-07 4.902194e-07 6e-45 2.0045948e-06 1.2489275e-05 4.7874373e-06 1.1597688e-05
-3.3438457e-06 0.0 1.0262858e-05 6.1814953e-06 4.7653207e-06 1.0028145e-05 6e-45 5.062468e-14
0.0 -6e-45 1.548434e-05 1.0632895e-06 8.319283e-06 9.956852e-07 3.8287064e-07 4.3094138e-07
9.097186e-07 8.962131e-06 0.0 2.3822855e-05 1.6193666e-05 3.7711043e-06 -1.1834047e-06 2.4411909e-06
0.0 9.1388847e-07 9.498406e-07 6e-45 3.6293077e-06 1.099388e-05 1.7477737e-06 1.39913745e-05
-8.3068755e-08 0.0 -1.6857224e-06 -2.4923877e-06 -5.8806734e-07 -3.5571327e-07 6e-45 -4.7063213e-07
-6e-45 6e-45 -1.7288932e-06 2.2635278e-09 -3.1968261e-06 -1.3451255e-07 -1.9342265e-06 -2.7446484e-10
-2.0393272e-06 9.79092e-08 0.0 -6.3267726e-06 -3.2748034e-07 1.7067299e-08 -1.07315984e-07 -1.043585e-06
0.0 -1.9116299e-06 -3.5080365e-07 -6e-45 1.4779138e-07 -4.0599e-06 -2.1722542e-06 -1.562045e-06
-2.1134895e-06 0.0 -2.6291452e-06 -1.2843989e-06 -1.0016806e-06 -1.1272472e-06 6e-45 -8.8248555e-07
-6e-45 6e-45 -9.2643484e-07 -5.913273e-08 -1.3732282e-06 -6.2849386e-07 -2.6817593e-06 -8.6882814e-08
-2.346085e-06 -1.687352e-07 0.0 -2.3702703e-06 -1.7960089e-07 1.8220643e-08 -2.7033218e-06 -1.7504613e-06
0.0 -9.457429e-07 -2.9603642e-08 -6e-45 -2.6980254e-07 -1.7293655e-06 -1.7198199e-06 -1.6990822e-06
-9.97087e-07 0.0 -8.2733357e-07 -7.974673e-08 -7.889701e-07 -1.3806894e-07 0.0 -3.7763948e-07
6e-45 0.0 -8.667159e-08 6e-45 -1.4988264e-07 -6.5408534e-07 -1.2199873e-06 -2.2445353e-07
-1.0795454e-06 -9.2284014e-10 0.0 -3.2013503e-09 -3.1713768e-10 -3.4529741e-09 -8.832988e-07 -3.1014903e-07
0.0 -1.9123705e-07 6e-45 6e-45 -1.5593126e-09 2.1833386e-09 -3.543376e-07 6e-45
4.0460844e-07 0.0 6.897354e-06 1.7875458e-06 -8.634743e-06 9.106161e-06 0.0 -1.712098e-06
0.0 0.0 8.02213e-06 -7.20659e-07 1.3327187e-06 -4.570206e-06 -1.2278328e-05 -2.0867294e-06
-9.500776e-06 -2.0898121e-06 0.0 5.7130896e-06 -3.5119028e-06 -2.887393e-06 4.859874e-07 9.268902e-06
0.0 -8.529444e-06 -2.7619112e-06 0.0 2.1646756e-06 6.051455e-06 3.329265e-06 1.2649251e-05

exp_avg_sq f4 [32, 32]
00000000: 4ae6 ef30 0000 0000 e3d9 b330 4dee 7a30
00000010: a3fe b12f 175a c530 c0e4 1723 90de 802f
00000020: e455 c123 4077 f119 ef83 902e d73b b32e
00000030: 9b2b 272f 6cd2 b42e f683 012f c0c9 232e
00000040: 7e2b 3f30 018e 3a2f 0000 0000 a119 3231
00000050: cd24 6b27 03c7 7f2f 5c97 952f 3f1b 8d31
00000060: 0000 0000 ba4a 1e30 f82c 8b2e 9613 6223
00000070: 0265 ed2f a407 0b31 9490 1130 54c6 9430
00000080: c3eb a531 0000 0000 d91d cc31 8419 ef31
00000090: 4494 0c2f da62 3e32 70ee 5927 44da 342f
000000a0: 0000 0000 0000 0000 2dc8 2430 8e93 c22d
000000b0: 57e5 2730 8bef 8d2e 961e 842f db90 882e
000000c0: bf69 df2f 9fea 8330 0000 0000 59d2 1e32
000000d0: 09e5 832f 368c 9a30 843e b730 6929 b732
000000e0: 0000 0000 d5c8 ac30 597a a52f 0000 0000
000000f0: 8913 ad31 471c 2732 b0fe 5a31 b468 0132
00000100: 665d 1332 0000 0000 a250 d831 98be 5431
00000110: dc33 0c30 10de 2d32 0000 0000 51be 9d2e
00000120: 9fa0 ba24 8555 a121 7f1f 2d30 f43d 702f
00000130: b715 112f 180a f32e 8a05 4e30 2f4d e02e
00000140: 2fcc 2f30 2545 bd30 0000 0000 16f2 c730
00000150: 5bde 9b2f c1db ff30 af3f ef30 4cc7 8132
00000160: 0000 0000 e98c 1730 931b 2e2f 770c aa23
00000170: a590 9231 2550 3c31 a3e4 c430 bfac 8731
00000180: bb39 7f31 0000 0000 e8ec b931 43c9 a531
00000190: e3a9 922f b337 1d32 6f7b 5026 c24a 312f
000001a0: 0000 0000 0060 8420 28af fd30 f5d3 b82f
000001b0: fc3c a730 6181 772d 50e6 582f 2c1c 292e
000001c0: 300b a92f e6cd 0d31 0000 0000 ffd3 3532
000001d0: 41eb 4530 fb9d 0031 f7e8 912f ae0b 7332
000001e0: 0000 0000 95c9 1331 f607 e82f a8a1 b91e
000001f0: 4a3b 3f31 6202 2b32 a09e fb30 4b41 1732
00000200: 834a 9f31 0000 0000 1b25 c231 7346 d731
00000210: a56f 562f 99cc 3432 21a1 3e26 7f77 e72f
00000220: d8b0 0325 b917 241d 3839 1930 0c4e b22f
00000230: 8c82 6130 cbe8 372e a846 132f 8432 f72d
00000240: 1073 be30 3bb9 8e30 0000 0000 cb3f 7032
00000250: e0bb 792e 8bb2 7f30 ba83 3330 e36d e032
00000260: 0000 0000 d576 2431 677f 012f 6077 0a25
00000270: 10a3 2e31 bf16 5332 9c65 6331 7143 f431
00000280: 4fb5 8431 0000 0000 1c2b 7931 417f 4b31
00000290: 5ddb 1530 3453 d931 4c37 ac25 4780 c82e
000002a0: 52f0 2222 0328 c921 8c22 0430 5c71 912e
000002b0: 1d87 012f 2178 042f 3ede ac2f b26a 4b2e
000002c0: 8d67 0330 68c9 6630 0000 0000 c3a6 3931
000002d0: 327f d12d 6bf6 6930 6d0a 0430 d6db 2d32
000002e0: 0000 0000 b43c 5d30 54f5 262f 6189 d421
000002f0: 66b1 2031 6a9e 5f31 419a 9030 9df0 8031
00000300: 4ece 002f 0000 0000 273c 922e 659a a12d
00000310: 88c7 4e2d 5334 492e 0000 0000 c044 df2d
00000320: 4590 9824 0000 0000 a87c 9929 2ceb db27
00000330: c2dd dc2b 8a57 b02d 902d 582d 8af6 292d
00000340: 6eab af2e b0e4 b029 0000 0000 58a5 762d
00000350: 578c d523 1721 e72c c4a1 902e f821 222f
00000360: 0000 0000 5319 b62c 9837 d12a e514 3025
00000370: 25e9 c92d 3d58 db2d afdc 162e d41c 7c2c
00000380: db6b 4730 0000 0000 30fe ac30 190c 472f
00000390: 2522 fe2f 736b 5c30 0000 0000 d3a5 bb2d
000003a0: 0000 0000 0000 0000 46a7 2630 f6a5 142e
000003b0: a0f7 492f b20f b42e be3c 3e30 abed f62d
000003c0: 48ca b12f 17e0 d42f 0000 0000 2813 7730
000003d0: 1041 2230 5ad1 1930 83cc ef2e 334c ea2f
000003e0: 0000 0000 933c 042f 7009 302e 0000 0000
000003f0: f611 782f a75e 0a30 fac4 332f 2c66 3b30
1.7454991e-09 0.0 1.3085891e-09 9.1288116e-10 3.2377043e-10 1.4359242e-09 8.234166e-18 2.3441205e-10
2.0961478e-17 2.496698e-23 6.571798e-11 8.150607e-11 1.5204053e-10 8.222831e-11 1.1779364e-10 3.72411e-11
6.95472e-10 1.6967051e-10 0.0 2.5916977e-09 3.2632751e-15 2.3262818e-10 2.721049e-10 4.1067376e-09
0.0 5.758626e-10 6.328976e-11 1.2255632e-17 4.318182e-10 2.0231505e-09 5.295615e-10 1.0824786e-09
4.828935e-09 0.0 5.9405747e-09 6.9587163e-09 1.27856e-10 1.1081932e-08 3.0244057e-15 1.6448448e-10
0.0 0.0 5.994732e-10 2.2120774e-11 6.108016e-10 6.454489e-11 2.4032393e-10 6.2102955e-11
4.06386e-10 9.598188e-10 0.0 9.244638e-09 2.39915e-10 1.1244825e-09 1.333277e-09 2.1322835e-08
0.0 1.2571727e-09 3.0100258e-10 0.0 5.0371836e-09 9.727109e-09 3.1867948e-09 7.532595e-09
8.5777625e-09 0.0 6.2955943e-09 3.09584e-09 5.10054e-10 1.01204165e-08 0.0 7.1733404e-11
8.0936744e-17 1.0932421e-18 6.298179e-10 2.1849883e-10 1.3195388e-10 1.10521536e-10 7.4950235e-10 1.0200051e-10
6.395479e-10 1.3771212e-09 0.0 1.4547961e-09 2.835233e-10 1.861615e-09 1.7407639e-09 1.5108206e-08
0.0 5.5133725e-10 1.5835004e-10 1.8436716e-17 4.2656034e-09 2.7403158e-09 1.4325859e-09 3.948656e-09
3.71402e-09 0.0 5.4111418e-09 4.825013e-09 2.6677957e-10 9.151267e-09 7.233178e-16 1.6124616e-10
0.0 2.2425197e-19 1.8457955e-09 3.362001e-10 1.2168182e-09 1.4069052e-11 1.9726909e-10 3.8451173e-11
3.074887e-10 2.063524e-09 0.0 1.0583789e-08 7.20025e-10 1.8716253e-09 2.6540878e-10 1.4147117e-08
0.0 2.1505902e-09 4.220621e-10 1.9654496e-20 2.782786e-09 9.954052e-09 1.8307738e-09 8.804203e-09
4.63598e-09 0.0 5.6503615e-09 6.2653327e-09 1.9502851e-10 1.0523899e-08 6.613786e-16 4.2103562e-10
1.1422356e-16 2.1717484e-21 5.574239e-10 3.2433467e-10 8.204004e-10 4.1816144e-11 1.3394674e-10 2.8103082e-11
1.3857022e-09 1.0384505e-09 0.0 1.39843435e-08 5.678291e-11 9.3022184e-10 6.5307015e-10 2.6127003e-08
0.0 2.393269e-09 1.1777744e-10 1.2010038e-16 2.5413023e-09 1.2286988e-08 3.3090606e-09 7.109002e-09
3.862318e-09 0.0 3.6258774e-09 2.9612723e-09 5.451762e-10 6.3249903e-09 2.9874714e-16 9.1177337e-11
2.2082319e-18 1.3630881e-18 4.8070414e-10 6.613973e-11 1.1780484e-10 1.2048008e-10 3.144453e-10 4.625162e-11
4.7804677e-10 8.395973e-10 0.0 2.7015836e-09 2.3817035e-11 8.5115087e-10 4.8036136e-10 1.011991e-08
0.0 8.0485596e-10 1.518477e-10 1.4402043e-18 2.3383904e-09 3.254082e-09 1.0521221e-09 3.752645e-09
1.1714826e-10 0.0 6.6499965e-11 1.8372146e-11 1.1754049e-11 4.5748582e-11 0.0 2.5382696e-11
6.6163894e-17 0.0 6.816189e-14 6.1039684e-15 1.569349e-12 2.0047759e-11 1.2288295e-11 9.6612805e-12
7.988531e-11 7.855641e-14 0.0 1.4020195e-11 2.3152943e-17 6.5690886e-12 6.577097e-11 1.4745882e-10
0.0 5.1755627e-12 3.7164434e-13 1.5272646e-16 2.2954591e-11 2.4936603e-11 3.4302058e-11 3.5827357e-12
7.254905e-10 0.0 1.2586892e-09 1.8103243e-10 4.6226592e-10 8.018823e-10 0.0 2.133308e-11
0.0 0.0 6.062816e-10 3.3798707e-11 1.8368818e-10 8.1882404e-11 6.9207917e-10 2.8072508e-11
3.2339842e-10 3.87218e-10 0.0 8.98853e-10 5.9027716e-10 5.595858e-10 1.090479e-10 4.2618495e-10
0.0 1.202685e-10 4.002615e-11 0.0 2.256185e-10 5.0338617e-10 1.6349935e-10 6.81754e-10

exp_avg f4 [32]
00000000: 1344 b735 b6d7 aa36 a76f fe37 af43 8838
00000010: 0904 5bb7 3957 d2b6 af5b 2cb6 f4ca 0cb8
00000020: 6d0d 35b8 babe ff37 8710 f6b6 fe1d 19b7
00000030: 8124 3f38 3b6b deb7 c77f 1fb4 38ea 0fb7
00000040: a359 2437 3608 e0b7 6092 1a37 10d8 4ab7
00000050: ad8d 3c37 a76e 35b7 5525 f033 e0a7 2437
00000060: 0d17 bb37 0cc4 bb37 0000 0000 bec6 ea36
00000070: b793 2bb8 df49 8931 089f 0e37 1104 e937
1.3654375e-06 5.091507e-06 3.0331152e-05 6.4975924e-05 -1.3054357e-05 -6.2686418e-06 -2.5683364e-06 -3.3567616e-05
-4.3166267e-05 3.0487183e-05 -7.3332953e-06 -9.126494e-06 4.5571946e-05 -2.6514395e-05 -1.4854514e-07 -8.5779975e-06
9.796032e-06 -2.6706704e-05 9.213196e-06 -1.2090444e-05 1.123866e-05 -1.0814204e-05 1.11826616e-07 9.814248e-06
2.2302871e-05 2.2383429e-05 0.0 6.99688e-06 -4.0907147e-05 3.995623e-09 8.500887e-06 2.7777658e-05
